models/best_model.pth (torch, 665250 bytes, 21 tensors)

convs.0.att_src f4 [1, 8, 32]
0	0xbded0500	-0.11573219
1	0xbdb58109	-0.08862502
2	0xbb5fc772	-0.0034145978
3	0x3c339717	0.010961316
4	0xbc381da7	-0.011237538
5	0xbb05f99c	-0.0020442968
6	0x3dfcce0d	0.123439886
7	0xbb24524f	-0.0025073474
8	0x3aefc13a	0.0018291839
9	0x3bd6570d	0.006541139
10	0xbddeaa63	-0.108723424
11	0xbb3cd21e	-0.0028811763
12	0xbe053dbc	-0.13011831
13	0xbdd70b05	-0.10500149
14	0xbb9d74c0	-0.0048051775
15	0xbdbd3553	-0.092386864
16	0x3aaa8648	0.001300999
17	0xbdf3c77c	-0.11903283
18	0x3d80d05a	0.0628974
19	0x3d8ceb6c	0.06880841
20	0x3ad7f4f4	0.00164762
21	0x3b69fc3a	0.0035703317
22	0x3c31e9c5	0.010858958
23	0xbaead70b	-0.0017916871
24	0x3d1d5e8c	0.038420245
25	0xb9a0e461	-0.00030687734
26	0xbbc96313	-0.006145844
27	0xbdba7848	-0.09104973
28	0x3db1eb29	0.08687431
29	0xbc1dc6e4	-0.009629939
30	0xbbd514a7	-0.006502706
31	0x3c047d93	0.00808658
32	0x3f020b52	0.50798523
33	0xbe0fcaaf	-0.14042161
34	0xbec119e5	-0.37715068
35	0xbef8cb2d	-0.4859251
36	0xbef43507	-0.47696707
37	0xbdeec8b7	-0.11659377
38	0x3f0be2cd	0.54642946
39	0xbe42c0dd	-0.19018884
40	0x3d808936	0.06276171
41	0xbd42e97d	-0.047585953
42	0x3e255319	0.1614498
43	0xbedcac5a	-0.43100244
44	0x3e63889e	0.22220084
45	0x3ad0c647	0.0015928232
46	0xbe18aed2	-0.14910439
47	0x3eb5b889	0.35492352
48	0xbe3f0fdd	-0.18658395
49	0xbe701860	-0.23446798
50	0xbd654c0b	-0.055980723
51	0xbed46c86	-0.41489047
52	0x3e47f3e3	0.19526629
53	0x3ea9f7ce	0.33196872
54	0x3e9a178c	0.3009609
55	0x3d34c94b	0.04413728
56	0xb99d54e8	-0.00030008634
57	0xbef32872	-0.47491795
58	0x3df0c5f1	0.11756504
59	0xbea29a53	-0.31758365
60	0xbed9004a	-0.42383033
61	0x3c69c93c	0.014269169
62	0xbed0c00d	-0.40771523
63	0xbcd22c6c	-0.025655948
64	0x3e87d82a	0.26532108
65	0xbea94858	-0.33063006
66	0x3dfb66dc	0.12275478
67	0x3e523876	0.2052935
68	0x3e838d3b	0.25693688
69	0xbf01af8f	-0.50658506
70	0xbefaabc3	-0.4895917
71	0x3e9de3be	0.30837816
72	0x3a9df811	0.0012052079
73	0x3edf6bb2	0.43636853
74	0x3ea27a5c	0.31733978
75	0xbe85916a	-0.26087505
76	0x3db67348	0.08908707
77	0xbdac74e0	-0.0842073
78	0x3dcea4b2	0.10090007
79	0x3d68310d	0.056687403
80	0xbdc12376	-0.09430592
81	0xbe64a9d4	-0.2233041
82	0x3eb9142b	0.361482
83	0x3ec908c9	0.39264515
84	0xbdd169c6	-0.10225253
85	0x3ea5d12a	0.32386142
86	0x3e928895	0.2861983
87	0xbede7094	-0.43445265
88	0xbd7cb666	-0.061697386
89	0xbdce871b	-0.10084363
90	0x3e7c359b	0.24629824
91	0xbc8f41ed	-0.01748749
92	0x3edaf47b	0.4276465
93	0x3f2df91e	0.6795825
94	0x3eba59d6	0.36396664
95	0x3ec91acf	0.39278266
96	0x3e9d089e	0.30670637
97	0xbec459c1	-0.38349727
98	0x3e8adac3	0.27120027
99	0x3ebda49d	0.37039652
100	0x3e91ab6f	0.28451106
101	0xbd0b9c4a	-0.034084596
102	0x3eb8539c	0.3600129
103	0xbeb71734	-0.3575989
104	0x3e342e4a	0.17595783
105	0x3e6ad1dc	0.22931617
106	0xbeed3521	-0.46329597
107	0x3eb0170b	0.3439258
108	0x3e15a78f	0.146147
109	0x3e5eb290	0.21747804
110	0x3e10e718	0.14150655
111	0xbd858974	-0.06520358
112	0x3e46a6ac	0.19399518
113	0x3e872607	0.263962
114	0xbe8572f7	-0.26064274
115	0x3ee4dbb9	0.44698885
116	0x3ec85270	0.39125395
117	0x3e902dfe	0.2816009
118	0xbe88ba7a	-0.2670477
119	0x3e62ed4f	0.22160839
120	0x3ba3d768	0.0050000437
121	0xbe46f3eb	-0.19428985
122	0xbeb6a41a	-0.35672075
123	0xbca49be2	-0.020093862
124	0x3ea1601f	0.31518647
125	0xbdd8d16c	-0.10586819
126	0xbe945bd7	-0.28976318
127	0x3e3c1e9d	0.18371053
128	0xbe8bbfcb	-0.27294764
129	0x3eee5836	0.46551675
130	0xbe108ca5	-0.14116152
131	0x3ebf0673	0.37309608
132	0xbe63e7aa	-0.22256342
133	0x3e9decb0	0.3084464
134	0xbe80515a	-0.25062066
135	0xbe85490d	-0.26032296
136	0x3f02d72b	0.5110957
137	0x3eb367f1	0.35040238
138	0x3e4858d2	0.19565132
139	0x3ecce3ad	0.40017453
140	0xbd8652a3	-0.065587305
141	0xbe3f0975	-0.18655951
142	0x3f16b3d3	0.5886814
143	0xbe867ed6	-0.26268643
144	0xbee8ff83	-0.4550744
145	0x3de10e21	0.10989023
146	0x3f021860	0.50818443
147	0x3ebd4957	0.36970016
148	0xbf03aacb	-0.51432484
149	0xbdb1f9f5	-0.08690254
150	0xbe955596	-0.2916686
151	0x3e8f40e6	0.279792
152	0x3ec9dbfb	0.39425644
153	0x3e482f4c	0.19549292
154	0x3e2ed571	0.17073609
155	0x3e7d29c1	0.24722959
156	0x3ecd91b4	0.40150225
157	0xbe918938	-0.28425002
158	0xbe3c091b	-0.18362848
159	0xbe706ba5	-0.23478563
160	0x3c80aeab	0.015708288
161	0x3ea4b059	0.32165793
162	0x3e3932ff	0.1808586
163	0x3e9d90f3	0.3077465
164	0xbe5fc95a	-0.21854153
165	0xbe2884e8	-0.1645695
166	0x3ca1a99d	0.019734198
167	0x3d9d7321	0.07687975
168	0xbea400b6	-0.32031792
169	0x3edcb9a3	0.4311038
170	0xbe6b11a3	-0.22955947
171	0x3ea5eba2	0.32406336
172	0xbf1b118f	-0.6057367
173	0x3eaf3d77	0.3422658
174	0xbed03326	-0.40664023
175	0xbdf20369	-0.11817057
176	0xbea3672e	-0.31914657
177	0x3ee58d30	0.4483428
178	0xbef4042d	-0.47659436
179	0x3e158404	0.14601141
180	0x3f1d4fa2	0.61449635
181	0xbf0550be	-0.5207633
182	0x3ea4a684	0.3215829
183	0xbec2bb60	-0.3803358
184	0x3ebd2ba4	0.36947358
185	0x3ee1b01c	0.44079673
186	0x3f10e7f5	0.5660394
187	0x3f273b67	0.65325016
188	0x3e8f7415	0.2801825
189	0x3e889e64	0.26683342
190	0x3ed20c7e	0.41025156
191	0x3ee5a6f4	0.44853938
192	0xbe61267f	-0.21987341
193	0xbedbcb8a	-0.42928725
194	0xbe51a339	-0.20472421
195	0xbf1293d2	-0.57256806
196	0xbe4bb476	-0.19893059
197	0x3d97e925	0.07417516
198	0x3f0001ba	0.50002635
199	0xbd003791	-0.031302992
200	0xbdc3a18e	-0.095522985
201	0xbe0a7d24	-0.135243
202	0xbeff494e	-0.49860615
203	0xbdcce2a6	-0.10004167
204	0xbea34427	-0.31887934
205	0xbe8847ee	-0.26617378
206	0xbdb63c4c	-0.088982195
207	0xbeb23036	-0.34802407
208	0x3ef9b149	0.4876807
209	0x3e107e03	0.1411057
210	0xbd433800	-0.047660828
211	0x3ec7c693	0.39018688
212	0xbf191b32	-0.5980712
213	0x3e7b397d	0.24533649
214	0xbd918d78	-0.07107061
215	0x3df4f4b2	0.119607344
216	0xbda48dcb	-0.08034857
217	0xbde423e2	-0.111396566
218	0xbd4d69d5	-0.050149757
219	0xbf0e2c73	-0.55536574
220	0x3dbc8704	0.0920544
221	0xbe2f4afc	-0.17118448
222	0xbd4758be	-0.048668616
223	0xbeee3eb4	-0.46532214
224	0x3f2d54ad	0.6770733
225	0xbd2c0da2	-0.04200519
226	0xbdbe2132	-0.09283675
227	0x3f0c8801	0.54895025
228	0x3ede1ed2	0.4338289
229	0xbced1f39	-0.028945552
230	0xbe53fb4f	-0.20701335
231	0x3b3c7253	0.0028754666
232	0xbaa29acf	-0.0012405756
233	0xbcd0cbdb	-0.02548783
234	0xbc9f5944	-0.019451745
235	0xbf0fa5ab	-0.56112164
236	0xbb71dd81	-0.0036905708
237	0xbe1c7094	-0.1527732
238	0x3eacc1a8	0.33741498
239	0xbe595014	-0.21221954
240	0x3e0966bd	0.13418098
241	0xbe106f88	-0.14105046
242	0xbd4505d8	-0.048101276
243	0x3c56d5c8	0.013112493
244	0x3b0f076a	0.0021824487
245	0x3e1943b3	0.14967231
246	0x3b42ee1f	0.0029743982
247	0xbb1ff2e5	-0.002440625
248	0xbdfd720f	-0.123752706
249	0xbdd05f27	-0.10174399
250	0xbde188e7	-0.1101244
251	0x3d2db25e	0.042406432
252	0x3f2693f0	0.65069485
253	0x3efaf60e	0.4901585
254	0xbe4995f9	-0.19686116
255	0x3efb65a9	0.49100998

convs.0.att_dst f4 [1, 8, 32]
0	0xbe119b8d	-0.14219494
1	0xbdf87001	-0.12130738
2	0xb98851d2	-0.00026000902
3	0x3c02b74b	0.007978271
4	0xbc0131bb	-0.007885392
5	0x3accc4ea	0.001562265
6	0x3e23ad67	0.15984116
7	0x39aa3244	0.00032462378
8	0x3b7c7fa3	0.0038528226
9	0x3bd89b9e	0.006610348
10	0xbe0c9a0a	-0.13730636
11	0xb9a6bcee	-0.0003180275
12	0xbe2baa37	-0.1676415
13	0xbe0eda6a	-0.13950506
14	0x3a2cb35a	0.0006588005
15	0xbe06e603	-0.1317368
16	0x3abebfd2	0.0014553017
17	0xbe1c349b	-0.15254442
18	0x3d921e33	0.07134666
19	0x3d98a097	0.07452505
20	0xbb0ad03b	-0.0021181244
21	0x3ac4586b	0.0014979964
22	0x3bd055d3	0.0063578873
23	0x3aa6ab6c	0.0012715883
24	0x3d0cb32d	0.034350563
25	0x3a23bf8d	0.00062465
26	0xbaca7d97	-0.0015448806
27	0xbdfc1e2c	-0.12310442
28	0x3dc3ff1f	0.09570145
29	0xbabe487e	-0.0014517454
30	0xbb7dfd13	-0.003875558
31	0x3b11ad53	0.0022228553
32	0xbd7749c0	-0.060373068
33	0xbe11fac4	-0.14255816
34	0xbdacd6f9	-0.0843944
35	0xbb1b4a7a	-0.0023695515
36	0xbd3b5eff	-0.045744892
37	0x3e1dc71a	0.15407982
38	0x3ddf0fb1	0.10891665
39	0x3e91709d	0.2840623
40	0x3eb677d2	0.3563829
41	0x3e5f96a9	0.21834816
42	0xbedf0d2e	-0.43564743
43	0xbe60834b	-0.21925084
44	0xbe6a3a6a	-0.22873846
45	0x3e3fd555	0.18733723
46	0xbd9892e4	-0.07449892
47	0xbe93dd83	-0.28879938
48	0x3dae3bab	0.085074745
49	0x3e1584ca	0.14601436
50	0x3ec53583	0.3851739
51	0xbdc92b89	-0.09822757
52	0x3dbaf1ce	0.09128152
53	0xbd32aed8	-0.043623775
54	0xbf0a8081	-0.5410233
55	0xbde712da	-0.112828925
56	0xbacfc351	-0.0015851056
57	0xbd76e096	-0.060272776
58	0xbeda3f36	-0.4262635
59	0x3d9d8cea	0.07692893
60	0xbe3f7843	-0.1869822
61	0x3e2bd284	0.16779524
62	0xbc7dc411	-0.01548864
63	0x3e7f55bc	0.24935049
64	0x3ced95a8	0.029002026
65	0x3c8903a8	0.016725376
66	0xbd227e12	-0.03967101
67	0xbdc19edc	-0.09454128
68	0x3e035af0	0.12827659
69	0xbd8496aa	-0.064740494
70	0x3d643e09	0.055723224
71	0x3d85b272	0.06528176
72	0xbc19c374	-0.009384979
73	0x3c13a554	0.009011585
74	0x3d097adc	0.033564433
75	0x3dce9167	0.10086327
76	0xbd777a49	-0.060419355
77	0x3dc2128e	0.09476195
78	0xbe05f11c	-0.13080257
79	0x3c8ec3b1	0.017427297
80	0x3d31345a	0.043262817
81	0xbdbfeb89	-0.09371097
82	0xbce4098d	-0.027836585
83	0xbd3fae23	-0.04679693
84	0xbe90113f	-0.28138158
85	0x3e090b13	0.1338313
86	0xbd690944	-0.056893602
87	0x3d5624eb	0.0522813
88	0x3d938cb9	0.07204575
89	0xbe20e50d	-0.15712376
90	0xbd870376	-0.06592457
91	0xbce4b17e	-0.027916666
92	0x3e0a987e	0.13534734
93	0x3da04963	0.078264974
94	0x3ceed261	0.02915305
95	0xbce4829d	-0.027894313
96	0xbe23c5ad	-0.15993376
97	0x3d43b2d3	0.047777962
98	0xbe3c7262	-0.18403009
99	0x3e26c8e5	0.16287573
100	0x3e48bb1b	0.19602625
101	0x3dbd0574	0.09229556
102	0x3e068063	0.13134913
103	0xbcf0df1b	-0.02940326
104	0x3e6da24a	0.2320644
105	0x3e01674a	0.12637058
106	0x3d8668a0	0.065629244
107	0xbc2da4c8	-0.010598369
108	0x3e6ae223	0.22937827
109	0x3e4fba4d	0.20285912
110	0xbdf15515	-0.11783806
111	0x3e8d42de	0.27590078
112	0xbe7fedca	-0.24993053
113	0x3dd62cce	0.104577646
114	0x3dfcb648	0.12339455
115	0xbe55aea8	-0.20867407
116	0x3cbbb315	0.022912541
117	0xbe1d53ac	-0.1536395
118	0x3e41a1cd	0.18909378
119	0xbe5c7d8e	-0.2153227
120	0x3b6d3104	0.0036192546
121	0x3e94c293	0.29054698
122	0xbd6d427d	-0.057924736
123	0x3e93086d	0.28717366
124	0xbe04d092	-0.12970188
125	0xbe793e71	-0.24340226
126	0xbd035825	-0.032066483
127	0x3e75faa4	0.24021393
128	0x3ddea372	0.108710185
129	0xbdb6a67a	-0.08918472
130	0x3e588881	0.21145822
131	0xbdbbceb2	-0.091702834
132	0x3e30835c	0.1723761
133	0xbe34b0f2	-0.17645624
134	0x3df5c591	0.120005734
135	0x3e1c7d85	0.15282257
136	0x3d14acee	0.03629773
137	0x3d4187bd	0.04724859
138	0xbdcbcb22	-0.09950854
139	0xbd03f9db	-0.032220703
140	0xbe46f4c7	-0.19429313
141	0x3c525194	0.012836833
142	0xbc789b19	-0.015173697
143	0x3de173e6	0.11008434
144	0xbd450a4c	-0.048105523
145	0xbd9962d0	-0.0748955
146	0xbd20381c	-0.03911601
147	0x3d34e072	0.04415936
148	0x3d124515	0.035710413
149	0x3e18103d	0.14849944
150	0x3da6819a	0.08130188
151	0xbe4d834d	-0.20069619
152	0x3cc4e176	0.02403329
153	0x3e259777	0.1617106
154	0xbd485070	-0.048904836
155	0xbdd9da1b	-0.106373034
156	0x3e185485	0.14875992
157	0x3daad3c8	0.08341175
158	0x3dff0b9b	0.124533854
159	0x3e47756b	0.19478385
160	0x3b8688c9	0.0041056615
161	0xbd3d6b89	-0.04624513
162	0xbd269520	-0.04066956
163	0xbd4ca130	-0.049958408
164	0x3c90ea93	0.017689979
165	0x3ceed3ae	0.029153671
166	0x39c6a22f	0.0003788634
167	0xbd084776	-0.033271275
168	0x3d432927	0.047646668
169	0xbd95571f	-0.07292008
170	0x3d38ef7d	0.04515027
171	0xbd76a4a6	-0.060215615
172	0x3db391d1	0.08768047
173	0xbd395a73	-0.045252275
174	0x3d7f117d	0.062272537
175	0x3d3c989f	0.04604399
176	0x3d2e8f18	0.042616934
177	0xbd8b7928	-0.06810218
178	0x3d91d516	0.07120721
179	0xbc254938	-0.0100882575
180	0xbd8164bd	-0.063180424
181	0x3da3700e	0.07980357
182	0xbd8da694	-0.06916538
183	0x3d72fff4	0.059326127
184	0xbd72322b	-0.059129875
185	0xbd84440c	-0.064582914
186	0xbda80944	-0.08204892
187	0xbdbb2dfc	-0.0913963
188	0xbd135d86	-0.035977863
189	0xbd57442d	-0.052555252
190	0xbd942ef9	-0.07235522
191	0xbd82605f	-0.063660376
192	0x3e8e962f	0.27848956
193	0x3e858c19	0.2608345
194	0xbe9b3ffd	-0.30322257
195	0x3e7900b5	0.24316676
196	0x3e84d2e6	0.25942153
197	0x3e503e90	0.20336366
198	0xbe5dd312	-0.21662548
199	0xbe38d8d9	-0.18051471
200	0x3e9335ae	0.28751892
201	0x3e8bba8f	0.2729077
202	0x3ea62cca	0.32456046
203	0x3e734332	0.23756102
204	0xbe7b0d3a	-0.24516764
205	0x3ea06bd8	0.31332278
206	0x3e34f74a	0.17672458
207	0x3e4da61c	0.20082897
208	0xbe53bfde	-0.2067866
209	0x3d64a5f7	0.05582234
210	0x3e97cff8	0.29650855
211	0xbe1a3276	-0.15058312
212	0x3e44f7a6	0.19235095
213	0xbd9d7e64	-0.07690123
214	0x3cc49aee	0.023999657
215	0x3cb615bd	0.022227162
216	0x3e5837dd	0.2111506
217	0x3e29451f	0.16530274
218	0x3e33db80	0.17564201
219	0x3e94133e	0.2892093
220	0xbde04a1b	-0.109516345
221	0xbcfe2466	-0.031023216
222	0xbe68ab4f	-0.22721599
223	0x3e2216a0	0.15828943
224	0x3ccffc6b	0.025388917
225	0x3e40fde4	0.18846852
226	0x3e0d7fc9	0.13818277
227	0x3d396590	0.045262873
228	0xbd3f230b	-0.04666428
229	0xbe5e32a2	-0.21699002
230	0x3e808651	0.25102475
231	0xbb10267b	-0.0021995592
232	0x399d639a	0.00030019582
233	0xbc80ca1d	-0.015721375
234	0x3d8223d1	0.06354488
235	0x3daf1a4e	0.08549939
236	0x3a67f6b4	0.00088487123
237	0xbbd31b9d	-0.0064425007
238	0x3d2365a3	0.03989185
239	0x3e6995d4	0.22811061
240	0xbd2ac8fc	-0.04169558
241	0x3e4b872d	0.19875784
242	0x3e271028	0.16314757
243	0xbc839fb4	-0.016067363
244	0x3b7c3ea9	0.0038489497
245	0xbdf2ca0d	-0.118549444
246	0xbadcd58d	-0.0016848311
247	0xbaaf8eb4	-0.0013393969
248	0x3e863708	0.2621386
249	0x3e1217b3	0.14266853
250	0x3dd1418e	0.10217582
251	0xbe076dee	-0.13225529
252	0xbc6d793d	-0.0144942375
253	0xbd7d7092	-0.061874934
254	0x3e5ae89f	0.213778
255	0xbda97eb6	-0.08276121

convs.0.att_edge f4 [1, 8, 32]
0	0x38eb2fcf	0.00011214578
1	0x2da77480	1.9037438e-11
2	0xb5352c9b	-6.7492664e-07
3	0x2e2f539c	3.9864653e-11
4	0xbb63fd83	-0.0034788556
5	0x37b606f7	2.1699334e-05
6	0xaf269dd0	-1.5153678e-10
7	0xbb39aa0e	-0.002833012
8	0xb3ee24d5	-1.1089438e-07
9	0x3bb8945d	0.0056329207
10	0xb27b655e	-1.4633171e-08
11	0x31c4fb95	5.7329523e-09
12	0xb198a2f0	-4.442306e-09
13	0xac65d4f6	-3.2661074e-12
14	0x3534c543	6.734228e-07
15	0x37728d48	1.4457219e-05
16	0x2f631059	2.0651338e-10
17	0x2e866a4f	6.112499e-11
18	0x2ebc7192	8.569424e-11
19	0xb31207e7	-3.400046e-08
20	0x2fc62548	3.604248e-10
21	0xb1b16f64	-5.1640416e-09
22	0xb47d0b9c	-2.3566685e-07
23	0x2c8d96cc	4.024203e-12
24	0xb4d263a1	-3.9188038e-07
25	0x2ab836d3	3.2723008e-13
26	0x3223c140	9.531789e-09
27	0x3a186a38	0.00058141677
28	0xb6aa7813	-5.0803733e-06
29	0x34e89c00	4.3326872e-07
30	0xb0369c62	-6.643345e-10
31	0xb3ec53cb	-1.1004848e-07
32	0x3835abcc	4.331376e-05
33	0xb582871e	-9.725079e-07
34	0xb3052437	-3.0999413e-08
35	0x325465ed	1.2363199e-08
36	0x3039f41a	6.7649497e-10
37	0x35e3e6a8	1.6979948e-06
38	0xba13ce97	-0.0005638389
39	0xb3838628	-6.124566e-08
40	0xb4db899a	-4.0892047e-07
41	0xaf739ed6	-2.2157151e-10
42	0x3a92ff0c	0.0011214926
43	0xb9a2cf72	-0.00031053607
44	0xb519aea7	-5.7251094e-07
45	0x3a931d63	0.0011223968
46	0x3ba4a6fa	0.005024788
47	0xae6ef913	-5.4336157e-11
48	0xb1cfea61	-6.0511387e-09
49	0x361dd091	2.3516225e-06
50	0xb5337fb5	-6.6868535e-07
51	0xaf2705d4	-1.5190632e-10
52	0xadb37c40	-2.0405122e-11
53	0xb99e4dae	-0.00030193984
54	0xaf482645	-1.820349e-10
55	0xadbd337a	-2.1509673e-11
56	0xbb2777de	-0.0025553624
57	0xba025609	-0.00049719267
58	0x3a8ab46b	0.0010582333
59	0x35d6ec26	1.6012971e-06
60	0xbc7a5fea	-0.015281657
61	0x3518be08	5.6900944e-07
62	0xba645350	-0.00087099243
63	0xbabee881	-0.0014565141
64	0x3ed7ad69	0.4212449
65	0xbee93414	-0.45547545
66	0xbec4ee7b	-0.38463196
67	0xbeaf653c	-0.34256923
68	0x3ed29dbb	0.41135964
69	0x3ebbbd3d	0.36667815
70	0xbeb466d0	-0.3523469
71	0x3ed737c4	0.42034733
72	0xbeb03574	-0.34415781
73	0xbeec5fac	-0.46166742
74	0x3eba8076	0.36426133
75	0xbebcd0e7	-0.3687813
76	0xbed141ac	-0.40870416
77	0xbeb9f8ee	-0.3632273
78	0x3ec8914f	0.39173362
79	0xbedee5b7	-0.43534634
80	0x3eec4689	0.46147564
81	0x3eb94c9d	0.36191264
82	0x3ea5bc14	0.32370055
83	0xbee780cb	-0.4521545
84	0xbeb1efac	-0.34753168
85	0xbeb60657	-0.35551712
86	0xbeda49cf	-0.42634436
87	0xbed6a521	-0.41922858
88	0x3eb51f5e	0.35375494
89	0x3eb08e76	0.3448369
90	0x3ee093c9	0.4386275
91	0xbeb77f74	-0.35839427
92	0x3eb155da	0.34635812
93	0xbeb1476d	-0.34624806
94	0xbeb03004	-0.34411633
95	0x3ecb658e	0.39725918
96	0xbebf2739	-0.37334612
97	0x3e74680a	0.23867813
98	0x3eb1432e	0.34621567
99	0xb22dafc0	-1.0109886e-08
100	0xbea0e8db	-0.31427655
101	0xbec90476	-0.39261216
102	0xbe9525e3	-0.29130468
103	0xb22a2ba3	-9.905224e-09
104	0x3e9614e8	0.29312825
105	0x3ec07831	0.375917
106	0xb80b13bf	-3.3158572e-05
107	0xbe6aa320	-0.2291379
108	0x36799314	3.7189502e-06
109	0x3e7ffe69	0.24999394
110	0xbcacf513	-0.021112954
111	0xb7844294	-1.5766629e-05
112	0x3e487c1f	0.19578598
113	0x3e932450	0.28738642
114	0x3e8d6dfd	0.27622977
115	0x3ec734fa	0.38907605
116	0x3da6f7b2	0.08152713
117	0x38848f4e	6.320943e-05
118	0xbed0129b	-0.40639195
119	0xbeaacba1	-0.33358482
120	0xbebf75e6	-0.37394637
121	0x3e7ab436	0.24482808
122	0xbe9ff978	-0.31245017
123	0x3ec992d9	0.39369848
124	0x3e4826ed	0.19546099
125	0xbecf9df8	-0.40550208
126	0xbe9a36e0	-0.3011999
127	0xbe86471e	-0.26226133
128	0xbdfacf8a	-0.12246616
129	0xbe3eba75	-0.18625815
130	0x3e6b19a1	0.22958995
131	0xbcc6a2f5	-0.024247626
132	0xbe48e03b	-0.19616787
133	0x3e942cd1	0.28940442
134	0x35a9124c	1.2596806e-06
135	0x37129a8e	8.738263e-06
136	0x3e54573e	0.20736405
137	0x3e7e7ca3	0.24852233
138	0xb8300795	-4.196873e-05
139	0x3e9731bc	0.29530132
140	0x3b0758b8	0.0020652246
141	0xbe7bd1d8	-0.24591768
142	0x3e457e35	0.19286425
143	0xb88165be	-6.17015e-05
144	0xbdeb8f4c	-0.11501941
145	0xbe830abd	-0.2559413
146	0x3e529f58	0.20568597
147	0x3e122676	0.14272484
148	0xbd7a890c	-0.061165854
149	0xbdf239b1	-0.1182741
150	0xbe802d18	-0.25034404
151	0x3e926c36	0.28598183
152	0x3e848250	0.2588067
153	0xba20df3c	-0.000613678
154	0xb6209f45	-2.3934565e-06
155	0xb78bda3b	-1.6671713e-05
156	0x35100647	5.3653315e-07
157	0xb7a0f2ad	-1.9186491e-05
158	0x3cadd9b8	0.02122198
159	0x36b795e6	5.4712755e-06
160	0x3e40138e	0.1875746
161	0x3e7c8499	0.24659957
162	0xbe9d3787	-0.30706427
163	0x3e211f67	0.15734635
164	0xbe3ba5cd	-0.18324967
165	0xbe54e1ed	-0.20789309
166	0x3e7d077e	0.2470989
167	0xbe66b6e6	-0.22530708
168	0xbe25c1b5	-0.16187175
169	0x3eb58c74	0.3545872
170	0xbe9db4d8	-0.30802035
171	0x3e960560	0.29300976
172	0x3e113740	0.14181232
173	0xbe4fa497	-0.2027763
174	0x3e76db71	0.24107148
175	0xbe5bdd32	-0.21471098
176	0x3e85fbc2	0.26168638
177	0xbdf7513b	-0.1207604
178	0x3e51ae4d	0.20476647
179	0xbe991ddb	-0.2990559
180	0x3e9bd62e	0.30436844
181	0x3ea856bd	0.32878676
182	0xbea69619	-0.3253639
183	0x3ea802c3	0.32814607
184	0xbe47da65	-0.19516905
185	0xbe6395b6	-0.22225079
186	0xbe8adb86	-0.27120608
187	0x3ea1c693	0.31596813
188	0x3e41f6b1	0.18941762
189	0x3e62e325	0.22156961
190	0x3e250d33	0.16118316
191	0xbe5094e8	-0.20369303
192	0x3c8ce1f9	0.017197596
193	0x35f469cd	1.8210209e-06
194	0x37944887	1.7676748e-05
195	0xb89ccbd0	-7.476623e-05
196	0xb4deaca5	-4.1476338e-07
197	0xb5116d63	-5.417589e-07
198	0xb6a1b0ad	-4.8187417e-06
199	0xb800acc1	-3.0678468e-05
200	0xb64ea63c	-3.0793153e-06
201	0xb8c6a685	-9.4723924e-05
202	0xba9a3407	-0.0011764773
203	0xb84c67bf	-4.873401e-05
204	0xb4757c4a	-2.2862619e-07
205	0x37da98c0	2.6058755e-05
206	0xb7909c43	-1.7238903e-05
207	0xb7a98e4a	-2.0212628e-05
208	0xb6c62c83	-5.9060417e-06
209	0x38998271	7.319905e-05
210	0x37436226	1.1645758e-05
211	0xb8393dd9	-4.4165037e-05
212	0x3a87971e	0.0010344719
213	0xb8a0da5f	-7.670069e-05
214	0xb439c87f	-1.7302408e-07
215	0xb3f6a5aa	-1.1485402e-07
216	0x38437f2d	4.6610065e-05
217	0x3730d9b9	1.054111e-05
218	0xb4a729eb	-3.1136673e-07
219	0x37e2e654	2.7048554e-05
220	0xb5b33495	-1.3351843e-06
221	0x3565db63	8.56284e-07
222	0xb424da99	-1.5353216e-07
223	0x3b5b01ac	0.0033417745
224	0xb6bdbf93	-5.654941e-06
225	0x3634ec1b	2.6959522e-06
226	0xb653cbf7	-3.1560173e-06
227	0xbb67480e	-0.003529075
228	0xb8a3c931	-7.8099205e-05
229	0xb77c6479	-1.5043764e-05
230	0xbe0d41c8	-0.13794625
231	0xb67c00d2	-3.7551404e-06
232	0x3812bd8b	3.498564e-05
233	0x369fbd9f	4.760644e-06
234	0xbb3b91b9	-0.0028620793
235	0xb8860536	-6.3905885e-05
236	0x3e40652d	0.18788595
237	0xbd3da895	-0.04630335
238	0xbe39cc46	-0.1814433
239	0xb902685d	-0.00012436644
240	0xbe3e8597	-0.18605648
241	0x3e243587	0.16036044
242	0xb466cb8e	-2.1494472e-07
243	0x3e3141eb	0.17310302
244	0x34239624	1.5235179e-07
245	0x3e359a31	0.177346
246	0x398bc7f6	0.00026661129
247	0x3e1fb4ea	0.15596357
248	0xb4d67519	-3.9945806e-07
249	0x3443859e	1.82094e-07
250	0x3e200b94	0.15629417
251	0x34997e5a	2.8590404e-07
252	0x3714aac3	8.861246e-06
253	0x355e0a7f	8.271672e-07
254	0x374e96b3	1.2313644e-05
255	0x3699a5c8	4.579055e-06

convs.0.bias f4 [256]
0	0x3cd936c1	0.026515367
1	0x3be3f2b8	0.0069564246
2	0x392b8544	0.00016357476
3	0x3a68f879	0.0008887123
4	0xbab823d7	-0.0014048767
5	0x3aab556b	0.0013071721
6	0xbd2374cb	-0.039906304
7	0x3aa3e7b7	0.001250497
8	0xbb7eca33	-0.0038877844
9	0xba9ce544	-0.0011970182
10	0x3c86cba4	0.016454525
11	0x39ede78c	0.00045376678
12	0x3cb915c7	0.022593392
13	0x3c984c11	0.018590959
14	0x3a6c933b	0.00090246246
15	0x3cbd983b	0.023143878
16	0xba8f025f	-0.0010910741
17	0x3cd30d62	0.025763217
18	0xbceccd39	-0.028906452
19	0xbd0d4d9c	-0.034497842
20	0xb871582b	-5.754099e-05
21	0xba4f4d60	-0.0007907953
22	0x379ad35b	1.845665e-05
23	0x3b3c922e	0.0028773653
24	0xbc9fc374	-0.019502379
25	0xbacf3980	-0.0015809983
26	0xbb09b63e	-0.0021013166
27	0x3c83c0bc	0.016083114
28	0xbce77f12	-0.028258834
29	0x3aac94e5	0.0013166933
30	0x3b1942d8	0.002338579
31	0x3b0c2905	0.0021386754
32	0xbde50c28	-0.11183959
33	0xbc53c213	-0.012924689
34	0x3df91b53	0.12163415
35	0x3dec2416	0.1153032
36	0x3de5f09d	0.11227534
37	0x3d217bfc	0.03942488
38	0xbdd98d1b	-0.10622617
39	0x3d0c10e6	0.034195803
40	0xbc94eb46	-0.018178593
41	0x3c82a7ec	0.015949212
42	0x3db70631	0.08936728
43	0x3e27e661	0.16396476
44	0xbcdae3a8	-0.026719883
45	0xba0bfb72	-0.00053398975
46	0x3d9a57b4	0.07536259
47	0x3d2ce2d0	0.042208493
48	0x3d137c1e	0.03600704
49	0x3da2d5ae	0.079509124
50	0xbdba3036	-0.09091227
51	0x3dffea10	0.12495816
52	0xbd56d297	-0.052446928
53	0xbdc16c0b	-0.09444436
54	0x3d8d000d	0.06884775
55	0xbd2d07cf	-0.042243775
56	0xb9d8a913	-0.000413247
57	0x3dfbace0	0.12288833
58	0x3d19876c	0.037482664
59	0x3d958687	0.0730105
60	0x3dfc8bef	0.12331378
61	0xbc670c94	-0.01410212
62	0x3dd0a51d	0.10187743
63	0xbc518c6a	-0.012789825
64	0x3d5485ca	0.051885404
65	0xbdc9c2d3	-0.09851613
66	0x3d5a9e67	0.05337372
67	0xbc7d5dbd	-0.0154642435
68	0x3d7b9f04	0.061430946
69	0xbdd703fa	-0.10498805
70	0xbda2b93f	-0.07945489
71	0x3d834d32	0.06411208
72	0x3d986945	0.074419536
73	0x3d90e8bc	0.070756406
74	0x3d95f121	0.07321382
75	0xbb814128	-0.003944535
76	0x3d22ced8	0.039748043
77	0xbc225471	-0.009907828
78	0x3b5a86b8	0.0033344459
79	0xbd5c0563	-0.053716075
80	0x3d971b74	0.07378283
81	0xbdd3aa6b	-0.10335239
82	0x3d4055c5	0.046956796
83	0x3cb70da6	0.022345375
84	0xbd9749b1	-0.073871024
85	0x3d5bdbba	0.053676344
86	0x3d8467eb	0.06465133
87	0xbd8244da	-0.06360789
88	0x3c6e74d2	0.014554219
89	0xbdb4d921	-0.088304766
90	0x3cc854d2	0.024454508
91	0xbc487c0d	-0.012236607
92	0x3dcd1e7b	0.10015579
93	0x3e155898	0.14584577
94	0x3d720c73	0.059093904
95	0x3c157d69	0.009124138
96	0x3ce2c7ce	0.027683165
97	0x3ba91083	0.005159439
98	0x3d59795c	0.053094253
99	0xbdaeafe0	-0.08529639
100	0xbda5843a	-0.08081861
101	0xbd1ea5ab	-0.038732212
102	0xbd385c73	-0.04501004
103	0x3d23dd7e	0.040006153
104	0xbd96fc4f	-0.07372343
105	0xbd4c1334	-0.049823
106	0x3c297059	0.010341727
107	0xbb8c72c5	-0.0042861425
108	0xbd99a533	-0.075022124
109	0xbd3d01c7	-0.046144273
110	0x3c2ed43f	0.010670721
111	0xbdafcecf	-0.085843675
112	0x3d994145	0.07483152
113	0xbc705c88	-0.014670499
114	0x3b13b51a	0.0022538365
115	0x3c311349	0.010807821
116	0xbcb52834	-0.022113897
117	0x3d33df07	0.043913867
118	0xbd54335b	-0.05180679
119	0x3d22e811	0.039772097
120	0x3b9cd9b8	0.0047866963
121	0xbdb118ef	-0.08647334
122	0x3cda580f	0.026653318
123	0xbdb6b32b	-0.08920892
124	0x3bc99e3d	0.0061528967
125	0x3da7a40a	0.08185585
126	0x3b6a13cc	0.0035717366
127	0xbda0f2d3	-0.07858815
128	0x3ba1290a	0.0049182223
129	0xbde55f44	-0.11199811
130	0xbe058874	-0.13040334
131	0xbe304de5	-0.17217214
132	0xbd7f388f	-0.062309798
133	0xbc44290a	-0.011972675
134	0xbb545835	-0.0032401208
135	0xbbe9ecdd	-0.007138832
136	0xbdb1c6c1	-0.086804874
137	0xbc55b33c	-0.013043221
138	0x3d93df6a	0.07220347
139	0xbd26be97	-0.040709104
140	0x3dfb22d1	0.122625
141	0x3e1c5ba3	0.15269332
142	0xbe32cfe5	-0.17462118
143	0xbd1c0014	-0.038086012
144	0x3e91f240	0.28505135
145	0x3dce76ae	0.1008123
146	0xbe0c41f4	-0.13697034
147	0xbe519b5f	-0.20469426
148	0x3e416ef9	0.18889989
149	0x3e43cbae	0.19120666
150	0x3cde0d74	0.027106024
151	0x3c0eb19f	0.00870934
152	0xbd1e6e7c	-0.038679585
153	0xbe7ac595	-0.24489434
154	0xbde58b6f	-0.112082355
155	0xbd345e8f	-0.04403549
156	0xbe99b774	-0.30022776
157	0x3e2a8e1a	0.1665577
158	0xbda29df7	-0.07940286
159	0xbd8ec069	-0.06970293
160	0xbc4662a6	-0.012108481
161	0xbdb0eecd	-0.08639298
162	0xbd303b78	-0.043025464
163	0x3bb564d1	0.0055357
164	0x3d86dfb6	0.06585638
165	0x3d9efdc1	0.077632435
166	0x3cdb48e6	0.02676816
167	0xbce2cbce	-0.027685072
168	0x3daae243	0.08343937
169	0xbe0786c9	-0.1323501
170	0x3d79bdcc	0.06097202
171	0xbdd210f4	-0.1025714
172	0x3e1f61fa	0.15564719
173	0xbde48dd8	-0.11159867
174	0x3de77213	0.11301055
175	0x3ddea1a2	0.10870673
176	0x3d9c2d42	0.0762582
177	0xbdfe8faa	-0.124297455
178	0x3dbc9e1c	0.092098445
179	0x3b03927d	0.0020076327
180	0xbd8e5530	-0.06949842
181	0x3db7f438	0.08982128
182	0xbd31fb33	-0.043452453
183	0x3e066d66	0.1312767
184	0xbdc2682d	-0.09492526
185	0xbcf36e7c	-0.029715769
186	0xbde0599b	-0.10954591
187	0xbe13965a	-0.14412823
188	0xbc89a80c	-0.016803764
189	0xbdd04933	-0.10170212
190	0xbdd559f6	-0.10417549
191	0xbd49aa78	-0.049234837
192	0xbcf8d88a	-0.030376691
193	0x3d5f1128	0.05445972
194	0x3dd14363	0.10217931
195	0x3d7d0335	0.061770637
196	0xbc9d6f8b	-0.019218227
197	0xbd1f41cd	-0.038881112
198	0xbd91e1bd	-0.07123134
199	0x3d1e230b	0.03860764
200	0x3b98c90d	0.004662639
201	0xbc05512e	-0.0081370305
202	0x3ba4bd0a	0.005027418
203	0x3ca56f15	0.02019457
204	0x3e29501d	0.16534467
205	0xbd1906f7	-0.037360158
206	0xbc909a90	-0.017651826
207	0x3db683b6	0.089118406
208	0xbd6df72c	-0.05809705
209	0xbda5451f	-0.080698244
210	0xbccebda1	-0.025236906
211	0xbd2b4414	-0.04181297
212	0x3d662573	0.056188058
213	0xbdd98476	-0.10620968
214	0x3d802cac	0.062585205
215	0xbd833714	-0.0640699
216	0xbc3d4725	-0.011552607
217	0xbcab43ba	-0.020906318
218	0xbc7d4788	-0.015458949
219	0x3d3ec29e	0.04657232
220	0xbcc631ef	-0.024193732
221	0x3dbdaeb8	0.092618406
222	0x3c1acef7	0.009448758
223	0x3d7fc8db	0.06244741
224	0xbd1e1ab2	-0.038599677
225	0xbd6b352e	-0.057423763
226	0xbd265331	-0.04060668
227	0xbd6bcb18	-0.057566732
228	0xbd1c54c3	-0.038166773
229	0x3d91baa8	0.0711568
230	0xbc45707a	-0.012050742
231	0x3b3884ce	0.002815533
232	0x3a4a9291	0.00077275286
233	0x3cf7aba4	0.030233212
234	0xbc89e109	-0.016830938
235	0x3d34f082	0.04417468
236	0xbafbbe99	-0.0019206583
237	0x3d402506	0.04691031
238	0xbd468a97	-0.048472013
239	0xbc4803a0	-0.0122078955
240	0x3cb74f13	0.022376573
241	0xbd3380ee	-0.04382413
242	0xbd256e6e	-0.040388517
243	0x3ca2da72	0.019879553
244	0x3a1385be	0.0005627534
245	0x3d044339	0.03229067
246	0x3afb0522	0.001915131
247	0x3a3be146	0.0007167052
248	0xbd59bcc4	-0.053158537
249	0xbce9f84c	-0.02856078
250	0xbcecbdbc	-0.028899066
251	0x3d724e32	0.059156604
252	0xbd513d34	-0.05108376
253	0xbd4f97e6	-0.05068197
254	0xbc60a4cc	-0.013711166
255	0xbc259a90	-0.010107651

convs.0.lin.weight f4 [256, 68]
0	0xbbf31ac8	-0.007418964
1	0x3ccfb46a	0.025354583
2	0x3b178cb4	0.0023124637
3	0x3c9a9c2a	0.018873293
4	0xbce569c9	-0.028004544
5	0x3b19272a	0.002336929
6	0x80001b75	-9.85e-42
7	0x3d82163f	0.06351899
8	0xbd38351b	-0.04497252
9	0x00001b6c	9.837e-42
10	0x80001b6b	-9.836e-42
11	0x80001b5d	-9.816e-42
12	0x00001c22	1.0092e-41
13	0x80001b8d	-9.883e-42
14	0x00001bc6	9.963e-42
15	0xbc853bbc	-0.016263835
16	0x3b9a1c76	0.0047031
17	0x80001b90	-9.888e-42
18	0x00002151	1.1952e-41
19	0x00001b8e	9.885e-42
20	0x80001b95	-9.895e-42
21	0x80001b67	-9.83e-42
22	0x80001b5b	-9.813e-42
23	0x00001bdd	9.995e-42
24	0x80001b9c	-9.904e-42
25	0x80001bd7	-9.987e-42
26	0x00001b99	9.9e-42
27	0x00001bb5	9.94e-42
28	0x00001f72	1.128e-41
29	0x00001b7d	9.861e-42
30	0x80001b6d	-9.839e-42
31	0x00001bf1	1.0023e-41
32	0x800021ed	-1.217e-41
33	0x80001b7a	-9.857e-42
34	0x00001b64	9.826e-42
35	0x00001bc8	9.966e-42
36	0x80001bef	-1.002e-41
37	0x00001b82	9.868e-42
38	0x80001b64	-9.826e-42
39	0x80001ba4	-9.916e-42
40	0x80001ba7	-9.92e-42
41	0x00001bba	9.946e-42
42	0x80001bc7	-9.965e-42
43	0x3b1e37c9	0.0024142137
44	0x80001bf6	-1.003e-41
45	0xbe125545	-0.1429034
46	0x3eb31d31	0.3498321
47	0xbe417008	-0.18890393
48	0x3c3b984f	0.011449887
49	0x00001b5d	9.816e-42
50	0x80001b5b	-9.813e-42
51	0x80001bb1	-9.934e-42
52	0x80001b6b	-9.836e-42
53	0x00001b97	9.897e-42
54	0x80001bb3	-9.937e-42
55	0x3b203191	0.0024443606
56	0xbb2d1c36	-0.002641452
57	0x3d2205ae	0.039556198
58	0xbc808cbd	-0.01569211
59	0x3b1e37c9	0.0024142137
60	0x000022b0	1.2444e-41
61	0x80001b6e	-9.84e-42
62	0x3d0bdd7b	0.034146767
63	0xbde6650b	-0.11249741
64	0x3ea466d8	0.32109714
65	0x3a0771f6	0.0005166823
66	0xbe32f19c	-0.17474979
67	0x00001b6e	9.84e-42
68	0xbab4933f	-0.0013776793
69	0x3cd94fbb	0.026527276
70	0x3bbccecd	0.0057619573
71	0xbb92b71a	-0.004477394
72	0xbd118527	-0.035527375
73	0x3ad6ad9b	0.0016378643
74	0x80001b9d	-9.906e-42
75	0x3d61760b	0.055044215
76	0xbc3f21b1	-0.0116657475
77	0x00001c31	1.0113e-41
78	0x80001bb0	-9.932e-42
79	0x00001bc2	9.958e-42
80	0x00001c43	1.0138e-41
81	0x00001b67	9.83e-42
82	0x80001ba4	-9.916e-42
83	0xbcae65c3	-0.021288758
84	0xbb6adfbc	-0.0035838922
85	0x80001b9f	-9.909e-42
86	0x00001bf2	1.0025e-41
87	0x00001bca	9.969e-42
88	0x80001b6b	-9.836e-42
89	0x00001c17	1.0077e-41
90	0x80001d5b	-1.0531e-41
91	0x80001bc8	-9.966e-42
92	0x80001d5e	-1.0535e-41
93	0x80001b7b	-9.858e-42
94	0x00001bc0	9.955e-42
95	0x00001b77	9.853e-42
96	0x00002314	1.2584e-41
97	0x00001c1f	1.0088e-41
98	0x00001be1	1.0001e-41
99	0x80001be7	-1.001e-41
100	0x00001e47	1.0861e-41
101	0x80001b6f	-9.841e-42
102	0x8000223f	-1.2285e-41
103	0x800022af	-1.2442e-41
104	0x00001bab	9.925e-42
105	0x00001b89	9.878e-42
106	0x00001ea5	1.0993e-41
107	0x80001b6b	-9.836e-42
108	0x80001b90	-9.888e-42
109	0x80001baa	-9.924e-42
110	0x80001baa	-9.924e-42
111	0xbb0a764e	-0.0021127644
112	0x80001b62	-9.823e-42
113	0xbe03a1cf	-0.12854694
114	0x3e9f79bb	0.3114756
115	0xbe3ffa20	-0.18747759
116	0x3c96d555	0.018412272
117	0x00001b73	9.847e-42
118	0x00001ba9	9.923e-42
119	0x00001b8f	9.886e-42
120	0x00001b9b	9.903e-42
121	0x80001ba1	-9.911e-42
122	0x00001bf1	1.0023e-41
123	0x3b7da6f2	0.0038704243
124	0xbce4b3d8	-0.027917787
125	0x3d43a2c3	0.047762644
126	0xbd07cf6f	-0.03315681
127	0xbb0a764e	-0.0021127644
128	0x80001c09	-1.0057e-41
129	0x80001b76	-9.851e-42
130	0x3c2f3e51	0.01069601
131	0xbdfe854e	-0.124277696
132	0x3e8f0f75	0.2794148
133	0x3c99e90b	0.018787881
134	0xbe21f82b	-0.15817325
135	0x80001bfb	-1.0038e-41
136	0x3abf09f2	0.0014575107
137	0x3b704595	0.0036662568
138	0xba27e680	-0.00064048916
139	0xbb795313	-0.00380439
140	0x3ac2314b	0.0014815716
141	0x3a530bea	0.00080507866
142	0x00001b9e	9.907e-42
143	0x3afa970e	0.0019118504
144	0x39321ef6	0.00016986937
145	0x00001ba4	9.916e-42
146	0x80001b61	-9.822e-42
147	0x800021da	-1.2144e-41
148	0x80001baf	-9.931e-42
149	0x80001cfc	-1.0398e-41
150	0x80001cce	-1.0333e-41
151	0x39047f62	0.00012635955
152	0x3ad7e09c	0.0016470137
153	0x80001c00	-1.0045e-41
154	0x80001c01	-1.0046e-41
155	0x00001b9f	9.909e-42
156	0x00001c89	1.0236e-41
157	0x80001b60	-9.82e-42
158	0x00001b8d	9.883e-42
159	0x00002124	1.1889e-41
160	0x80001b87	-9.875e-42
161	0x00001b9d	9.906e-42
162	0x00001bd5	9.984e-42
163	0x00001be3	1.0004e-41
164	0x00001bab	9.925e-42
165	0x80001c68	-1.019e-41
166	0x80001c2f	-1.011e-41
167	0x800021e1	-1.2153e-41
168	0x80001c09	-1.0057e-41
169	0x00001b94	9.893e-42
170	0x00001bc2	9.958e-42
171	0x80001b9d	-9.906e-42
172	0x00001b64	9.826e-42
173	0x00001c1d	1.0085e-41
174	0x00001bb5	9.94e-42
175	0x80001bc6	-9.963e-42
176	0x00001bdb	9.993e-42
177	0x80001cef	-1.038e-41
178	0x00005fb8	3.4337e-41
179	0xbb4f8205	-0.003166319
180	0x00001b97	9.897e-42
181	0xbab6fef9	-0.0013961486
182	0xba12fecf	-0.00056074274
183	0x3a4cba65	0.00078097574
184	0xba9b8549	-0.0011865284
185	0x80001b85	-9.872e-42
186	0x80001b8c	-9.882e-42
187	0x80001bda	-9.991e-42
188	0x80001b7c	-9.86e-42
189	0x00001b64	9.826e-42
190	0x80001bc3	-9.959e-42
191	0x39dd5683	0.0004221686
192	0x3b172b19	0.002306646
193	0x3b293a81	0.0025822225
194	0xba629852	-0.00086439133
195	0xbb4f8205	-0.003166319
196	0x00001b8a	9.879e-42
197	0x80001bcc	-9.972e-42
198	0x3bd20b31	0.0064100255
199	0x3b00917b	0.0019617963
200	0x3aa794d6	0.0012785445
201	0xbb447360	-0.0029975995
202	0x39461d5d	0.0001889369
203	0x00001b8f	9.886e-42
204	0xba979790	-0.0011565555
205	0xbb866ee2	-0.0041025737
206	0x3c180ff7	0.00928115
207	0x3c84c8c8	0.016209021
208	0xbb99a515	-0.0046888688
209	0xba2dc865	-0.00066292874
210	0x00001bbf	9.953e-42
211	0x3b07eac2	0.0020739292
212	0xbc194256	-0.009354195
213	0x80001bb1	-9.934e-42
214	0x80001bab	-9.925e-42
215	0x00001b85	9.872e-42
216	0x80001ba7	-9.92e-42
217	0x80001b87	-9.875e-42
218	0x80001bb4	-9.938e-42
219	0xbc03e22b	-0.008049528
220	0x3b7046d6	0.0036663315
221	0x800021b7	-1.2095e-41
222	0x00001bbc	9.949e-42
223	0x00001b77	9.853e-42
224	0x800022b6	-1.2452e-41
225	0x00001fff	1.1478e-41
226	0x80001ba8	-9.921e-42
227	0x80002321	-1.2602e-41
228	0x80001be3	-1.0004e-41
229	0x00001bd7	9.987e-42
230	0x00001b64	9.826e-42
231	0x80001b61	-9.822e-42
232	0x80001bb4	-9.938e-42
233	0x80001bd2	-9.98e-42
234	0x0000ddae	7.9524e-41
235	0x80001cff	-1.0402e-41
236	0x80001cb2	-1.0294e-41
237	0x00001b64	9.826e-42
238	0x00001bc3	9.959e-42
239	0x80001b60	-9.82e-42
240	0x80001bcd	-9.973e-42
241	0x00001b66	9.829e-42
242	0x80001d5f	-1.0536e-41
243	0x80001b94	-9.893e-42
244	0x80001b80	-9.865e-42
245	0x00001b92	9.89e-42
246	0x00001b79	9.855e-42
247	0x3c0ff741	0.008786977
248	0x80002113	-1.1865e-41
249	0x3c06869e	0.008210806
250	0xb7bf6bfa	-2.2819255e-05
251	0xb8c2227a	-9.2570626e-05
252	0x3b5260cb	0.003210115
253	0x00001b71	9.844e-42
254	0x00001b81	9.867e-42
255	0x00001b87	9.875e-42

convs.0.lin_edge.weight f4 [256, 6]
0	0xb882328c	-6.208298e-05
1	0xb80185f0	-3.0880736e-05
2	0xb763b3e8	-1.3572142e-05
3	0xb9578b88	-0.00020555977
4	0xb60a0c5c	-2.0570797e-06
5	0xb92053bc	-0.00015289983
6	0xae08a1ef	-3.1066646e-11
7	0xac7f6074	-3.6291222e-12
8	0xac4c377b	-2.9020941e-12
9	0xae0f2a7f	-3.255218e-11
10	0xac86415e	-3.8157663e-12
11	0xadd9ff7f	-2.4783507e-11
12	0x354a59b6	7.538141e-07
13	0xb3da57aa	-1.0167362e-07
14	0x33d16da2	9.752263e-08
15	0x3451d239	1.954112e-07
16	0x34b89a56	3.4384965e-07
17	0xb40d0045	-1.3131746e-07
18	0xade16f5e	-2.5628995e-11
19	0x2d65aa88	1.30550085e-11
20	0xaca9f378	-4.8302994e-12
21	0xad88e9df	-1.556527e-11
22	0xae2d3efd	-3.939159e-11
23	0xad8c5b11	-1.5956599e-11
24	0x3aae33e0	0.0013290606
25	0xb8cf8ac3	-9.8963756e-05
26	0x39144621	0.00014140505
27	0xba326fee	-0.000680684
28	0xbb0ec71a	-0.0021786154
29	0xbaceb159	-0.0015769406
30	0xb853336e	-5.0354218e-05
31	0xb70f7192	-8.549907e-06
32	0xb62c00e7	-2.5630522e-06
33	0xb86ad498	-5.598794e-05
34	0x37bb8541	2.2354188e-05
35	0xb85b9962	-5.2356518e-05
36	0x2f8a8241	2.5194605e-10
37	0x2e0a0a7b	3.1386876e-11
38	0x2dc05975	2.18676e-11
39	0x2f9ada96	2.8167751e-10
40	0xad888640	-1.5521029e-11
41	0x2f774ebd	2.2492493e-10
42	0x3a410fc9	0.0007364718
43	0x397dfbb2	0.00024221724
44	0x39c5b7bc	0.0003771166
45	0x3aa452a8	0.001253684
46	0xbac4de70	-0.0015019905
47	0x3a348a82	0.00068870944
48	0xb55d61c6	-8.2471195e-07
49	0xb4dca404	-4.109753e-07
50	0x33082682	3.169999e-08
51	0xb521b171	-6.0235385e-07
52	0xb5170acb	-5.626759e-07
53	0x34916704	2.7083308e-07
54	0xbb30f8dd	-0.0027003803
55	0x3a017213	0.0004937958
56	0xba597f58	-0.0008296869
57	0xbb5d9e03	-0.0033816106
58	0xbbc51114	-0.0060139988
59	0x3af0e8a6	0.0018379882
60	0x3302a7df	3.042066e-08
61	0x317ba5a7	3.661947e-09
62	0x3109c20a	2.0046422e-09
63	0x330aa7af	3.2283136e-08
64	0xb14d539f	-2.987896e-09
65	0x32cdcbc4	2.3957803e-08
66	0xb2f67521	-2.8691433e-08
67	0xb1c5b117	-5.7535874e-09
68	0xb09380cd	-1.0732265e-09
69	0xb325ff22	-3.8649098e-08
70	0x32fcd30a	2.943263e-08
71	0xb2e737a4	-2.6917242e-08
72	0x32dd0a96	2.57326e-08
73	0x31aa17fe	4.9503788e-09
74	0x301bc6cc	5.667118e-10
75	0x33122810	3.402971e-08
76	0xb2eccb22	-2.756639e-08
77	0x32c6935a	2.3117241e-08
78	0x2c91e827	4.146922e-12
79	0x29c08465	8.5494796e-14
80	0x2ade7a21	3.9519866e-13
81	0x2c2cbe43	2.4548287e-12
82	0x2c1b234e	2.2046423e-12
83	0x2bfad146	1.7821653e-12
84	0xb5a7bd24	-1.2497517e-06
85	0xb4207d19	-1.4946671e-07
86	0xb39391ad	-6.871719e-08
87	0xb59de5e9	-1.1764324e-06
88	0x31adb34a	5.0553455e-09
89	0xb5824884	-9.70686e-07
90	0x36cc00c3	6.0797624e-06
91	0x374e38ef	1.2291813e-05
92	0xb58ec8ff	-1.0638322e-06
93	0xb57bbe62	-9.378183e-07
94	0xb7178bcb	-9.032849e-06
95	0xb709be22	-8.210105e-06
96	0xaedf2a44	-1.0148374e-10
97	0x2f015a8d	1.1764652e-10
98	0xae0a745d	-3.148092e-11
99	0xaeb1405e	-8.060462e-11
100	0xaf4d020c	-1.8645369e-10
101	0xaea99cec	-7.713105e-11
102	0x311d4336	2.2884712e-09
103	0x2fe60776	4.1842058e-10
104	0x2e32f713	4.069196e-11
105	0x3192f9cf	4.277559e-09
106	0xb1ad0452	-5.035454e-09
107	0x311dc77b	2.2959898e-09
108	0xaef4b54c	-1.112804e-10
109	0x2d6cbd55	1.3457087e-11
110	0xad83e80a	-1.4996022e-11
111	0xae142a67	-3.3688965e-11
112	0xae67506c	-5.2594748e-11
113	0x2d9d0aff	1.7853717e-11
114	0x330bbe72	3.253667e-08
115	0xb2545695	-1.2359711e-08
116	0x31e53dcb	6.671802e-09
117	0x31f9ff0d	7.2758497e-09
118	0x3221a88c	9.4097565e-09
119	0xb2a2184a	-1.8870328e-08
120	0xaf4fca69	-1.8898451e-10
121	0x2f3ecfe1	1.7354253e-10
122	0xae5912f2	-4.9356914e-11
123	0xaf00421e	-1.1665022e-10
124	0xafac6110	-3.1355585e-10
125	0xaf0cd745	-1.2809405e-10
126	0x318e1149	4.134709e-09
127	0xb1136865	-2.1450657e-09
128	0x2fefadc2	4.359731e-10
129	0x3136f958	2.6626221e-09
130	0x31bbf4e6	5.470258e-09
131	0x30ed5957	1.7269411e-09
132	0x34cfe5ac	3.8723863e-07
133	0x339aae82	7.2029266e-08
134	0x32f95115	2.9024287e-08
135	0x350d8519	5.2720276e-07
136	0xb37d331a	-5.895263e-08
137	0x34e2f484	4.227369e-07
138	0x30b59bf3	1.3213807e-09
139	0x2f88dfa0	2.489715e-10
140	0x2de639df	2.6173673e-11
141	0x312a2897	2.4761329e-09
142	0xb13fa737	-2.7889209e-09
143	0x30b4df6a	1.3160222e-09
144	0x354fc932	7.7406287e-07
145	0x33d366e5	9.8441696e-08
146	0x336359c0	5.2934183e-08
147	0x354757c1	7.4260976e-07
148	0x33960b93	6.987025e-08
149	0x352ddf93	6.4772865e-07
150	0xaa4f784c	-1.842703e-13
151	0x29a9bac4	7.537506e-14
152	0xa951715b	-4.6505643e-14
153	0xaa33067f	-1.5900647e-13
154	0xaad5a62b	-3.7951703e-13
155	0xa95d8432	-4.918652e-14
156	0xb2ac45f4	-2.0055246e-08
157	0xb16ff295	-3.491697e-09
158	0xb0e503e3	-1.6663048e-09
159	0xb2ebfb1c	-2.7471792e-08
160	0x323c682c	1.0966726e-08
161	0xb2dc9463	-2.567885e-08
162	0xb9195411	-0.00014622534
163	0xb8ea3b39	-0.000111690206
164	0xb8f3be64	-0.00011622606
165	0xba52b49c	-0.0008037777
166	0x38d4da18	0.00010149571
167	0xba18cac1	-0.00058285525
168	0x37480500	1.1922093e-05
169	0x3643823a	2.9133066e-06
170	0x352f3335	6.5267096e-07
171	0x37a9ab34	2.0226093e-05
172	0xb73498e1	-1.0764431e-05
173	0x375aeba5	1.3048678e-05
174	0xb4d2c87a	-3.9261414e-07
175	0x343458a5	1.6796055e-07
176	0xb3a8f16c	-7.867024e-08
177	0xb250cfdf	-1.2154458e-08
178	0xb433110f	-1.667688e-07
179	0x3444055e	1.8255875e-07
180	0x302243d2	5.9031635e-10
181	0xaf8485e6	-2.41058e-10
182	0x2ed73a1f	9.7873924e-11
183	0xafbcf30b	-3.4369693e-10
184	0x2faa983b	3.1030986e-10
185	0xb005770d	-4.85543e-10
186	0x33d3b59b	9.858487e-08
187	0xb328fe70	-3.9346958e-08
188	0x32629985	1.3189838e-08
189	0xb2197146	-8.9315275e-09
190	0x3362e08e	5.2823957e-08
191	0xb3247ced	-3.8297845e-08
192	0xb98f72e8	-0.00027360697
193	0x39b6ba53	0.00034852567
194	0xb94b195a	-0.00019369033
195	0xb6adda46	-5.181212e-06
196	0x38e5f81a	0.000109657834
197	0x38109f9a	3.4480916e-05
198	0xb5039782	-4.9021776e-07
199	0x35c20c03	1.4457622e-06
200	0xb5975771	-1.1275825e-06
201	0xb3cd0287	-9.546516e-08
202	0xb5a6ae0c	-1.2418618e-06
203	0x3449ac13	1.8782184e-07
204	0x34175f03	1.4097536e-07
205	0xb331d0f1	-4.1401055e-08
206	0xb32dd141	-4.0470017e-08
207	0xb0fc4e23	-1.8357621e-09
208	0xb3e7baa0	-1.07907226e-07
209	0xb23fbb1e	-1.1160209e-08
210	0xb1f6e620	-7.1857045e-09
211	0xb17da2a9	-3.6908807e-09
212	0x309f56f7	1.159349e-09
213	0xb17bc977	-3.6639827e-09
214	0x327d0058	1.4726616e-08
215	0xb191cedb	-4.243572e-09
216	0x2f59ba8a	1.9802307e-10
217	0xb0798c98	-9.078547e-10
218	0x30317a5b	6.45661e-10
219	0x2f74e039	2.227133e-10
220	0x30941d27	1.0776703e-09
221	0x2ca95a37	4.8132848e-12
222	0x359fe69a	1.1913537e-06
223	0xb5da1829	-1.6249297e-06
224	0xb5f55c98	-1.8280871e-06
225	0x35f6473b	1.8349159e-06
226	0x3665a5c5	3.422015e-06
227	0x3524d129	6.139913e-07
228	0x3b9c4b16	0.004769693
229	0xba666c1d	-0.0008789914
230	0xb9fcc2a5	-0.00048210207
231	0xb74a84e0	-1.2071076e-05
232	0xbb458dca	-0.0030144327
233	0xb9c54277	-0.00037624288
234	0x3107f6f7	1.9785469e-09
235	0x333f4a5e	4.453829e-08
236	0xb2aab173	-1.98713e-08
237	0xb2cc0945	-2.3752941e-08
238	0xb3b2b19a	-8.3210765e-08
239	0xb247d640	-1.1632039e-08
240	0xb5645c78	-8.507118e-07
241	0x354868db	7.465839e-07
242	0x350231e4	4.8501374e-07
243	0xb4c61190	-3.6893152e-07
244	0xb51513f9	-5.553589e-07
245	0xb36ead37	-5.557123e-08
246	0x30c8c13b	1.4606835e-09
247	0xafdb41c4	-3.9882597e-10
248	0xb00405ee	-4.8029747e-10
249	0x2f07321c	1.2295981e-10
250	0xb0304518	-6.4126615e-10
251	0xae45e1e3	-4.4993242e-11
252	0x3b152a51	0.0022760818
253	0xbafc9f8a	-0.001927362
254	0xbae2b365	-0.0017295895
255	0x3ad357f7	0.0016124238

convs.1.att_src f4 [1, 8, 32]
0	0xbc04c339	-0.008103185
1	0x3ea23d3c	0.31687343
2	0xbb8199a6	-0.003955084
3	0x3c525567	0.012837744
4	0x3d8d46d2	0.068982735
5	0xbee80eed	-0.45323887
6	0x3be9abfd	0.0071310983
7	0xbc2f16aa	-0.010686556
8	0xbc3d9463	-0.011571023
9	0x3b658176	0.0035019792
10	0xbe0a70da	-0.13519612
11	0x3f0becd1	0.5465823
12	0x3a8d4b31	0.0010779855
13	0x3ac5a7ee	0.0015079954
14	0xbbae56cf	-0.005320407
15	0x3c1019ba	0.008795196
16	0xbe727e8c	-0.23681086
17	0x3b3dba20	0.002895005
18	0xbd90d1ae	-0.07071243
19	0xbc72c7ab	-0.014818112
20	0x3bc1a3c7	0.0059094164
21	0x3be9f97c	0.0071403366
22	0x3d0c4970	0.034249723
23	0xbe9ee24c	-0.31032026
24	0xbe2d5371	-0.16926362
25	0x3d376f18	0.04478368
26	0x3b9bf0c9	0.0047589284
27	0xbefaabd3	-0.48959216
28	0x3c55b6af	0.013044043
29	0x38cf5282	9.8858975e-05
30	0x3c47563b	0.012166555
31	0xbec15e05	-0.37767044
32	0x39a0663c	0.0003059375
33	0x3df6dcbc	0.120538205
34	0x3d9457e2	0.07243325
35	0xbdec5f1e	-0.1154158
36	0xbec160af	-0.37769076
37	0x3d513ae8	0.051081568
38	0x3d47cebe	0.04878115
39	0xbd9502ac	-0.072759
40	0xbf82dc15	-1.0223414
41	0x3d4cc42f	0.049991783
42	0xbdc2998e	-0.095019445
43	0x3e4268e8	0.18985331
44	0x3ad442d9	0.0016194239
45	0xbc5071b0	-0.012722418
46	0x3e07f40f	0.13276695
47	0xbec68d70	-0.38779783
48	0xbe13cb31	-0.1443298
49	0xbe3142f3	-0.17310695
50	0x3eab52fa	0.33461744
51	0xbbac2460	-0.0052533597
52	0xbef456db	-0.47722515
53	0x3ed2332e	0.41054672
54	0xbdc3f1c6	-0.09567599
55	0x3d031e9c	0.032011613
56	0x3add8dd3	0.0016903229
57	0xbf99a1ab	-1.2002462
58	0x3e11e5e2	0.1424785
59	0xbd946795	-0.07246319
60	0xbeac1442	-0.33609205
61	0x3eed30af	0.46326205
62	0x3dc92623	0.09821727
63	0x3dde035a	0.10840483
64	0x3ea88013	0.32910213
65	0x3e043a9e	0.12912986
66	0x3d575ded	0.05257981
67	0x3e1b1b90	0.15147233
68	0x3e762ef3	0.24041347
69	0xbe64c85f	-0.2234206
70	0x3e30fc49	0.17283739
71	0xbf3e88c0	-0.74427414
72	0x3e019f73	0.12658481
73	0x3ee95e53	0.45579776
74	0x3e53999a	0.20664063
75	0xbf50f2b8	-0.8162036
76	0x3c64c36b	0.013962607
77	0x3d66a364	0.056308165
78	0x3d14529e	0.036211602
79	0x3e8b8462	0.27249438
80	0x3e02c56f	0.12770627
81	0x3d48c6e7	0.049017813
82	0xbda944cc	-0.08265075
83	0x3d52ff90	0.051513255
84	0xbe482faa	-0.19549432
85	0x3def0151	0.11670173
86	0xbf359c4e	-0.7094163
87	0x3ea4a83a	0.32159597
88	0x3d6194e4	0.055073634
89	0x3dd932dc	0.10605404
90	0xbe75bd69	-0.23998035
91	0x3d514ff5	0.051101644
92	0x3e104f63	0.14092784
93	0xbd8cddf3	-0.06878271
94	0x3e0fc836	0.14041218
95	0x3d9e7886	0.07737832
96	0x3d9da27f	0.07697009
97	0xbf1062ab	-0.56400555
98	0xbe2e149a	-0.17000046
99	0x3e2c57d4	0.16830379
100	0x3df9a9e6	0.12190609
101	0xbf6e40b0	-0.93067455
102	0x3d999bdb	0.0750043
103	0x3d9acddd	0.075587966
104	0x3e6fa03a	0.23400965
105	0xbe97d8ec	-0.29657686
106	0x3ebc7faf	0.36816165
107	0x3d5ad759	0.053428028
108	0x3d83e87d	0.06440828
109	0x3ed3f067	0.4139435
110	0xbd13b1bd	-0.036058176
111	0x3e736555	0.23769124
112	0x3c0958e8	0.008383013
113	0xbe14d834	-0.145356
114	0x3e98ee01	0.29869083
115	0x3d8bdf3c	0.06829688
116	0xbdd0c050	-0.10192931
117	0x3d5e735e	0.05430924
118	0x3d893b32	0.06700744
119	0x3b2b13d0	0.0026104338
120	0xbea7d5a8	-0.32780194
121	0xbee996b6	-0.45622796
122	0xbdeecfc9	-0.116607256
123	0xbe3d5c3b	-0.18492214
124	0xbf249b3d	-0.64299375
125	0x3e59a2b3	0.21253471
126	0x3e2ca22a	0.16858736
127	0xbeb611c5	-0.35560432
128	0xbb380f9b	-0.0028085473
129	0x3c2ed7dc	0.010671582
130	0xbc55709e	-0.013027338
131	0xbdeb77b7	-0.11497443
132	0x3f15cbad	0.5851391
133	0x3c491d58	0.0122750625
134	0xbc45379c	-0.012037184
135	0xbe33f493	-0.17573766
136	0xbe7c6e27	-0.24651395
137	0xbef8a2ee	-0.48561805
138	0xbb909dd1	-0.0044133444
139	0x3ea18bbb	0.31551918
140	0x3cb434eb	0.02199789
141	0xbd5d2904	-0.053994194
142	0xbbbde541	-0.0057951515
143	0xbdb59849	-0.08866937
144	0x3d26c213	0.040712427
145	0x3e00f4c5	0.12593372
146	0x3f5ea7c2	0.8697473
147	0xbac489af	-0.0014994646
148	0x3c0d1156	0.00861009
149	0xbdc70f84	-0.09719756
150	0x3c003b34	0.007826615
151	0x3bd8585d	0.0066023306
152	0xbe6f6ba1	-0.23380901
153	0xbe3f6d18	-0.1869396
154	0xbd3394b1	-0.043842975
155	0xbec9b0c1	-0.39392665
156	0xbbcd73ab	-0.006269892
157	0x3e9c49ff	0.30525205
158	0xbece7179	-0.40320948
159	0x3e08ed6f	0.13371824
160	0x3a5bd575	0.00083859946
161	0x3a1b2642	0.00059184816
162	0xbad025ba	-0.0015880384
163	0x3aaadd31	0.0013035891
164	0xbaafa7f7	-0.0013401498
165	0x38f1b6ea	0.00011525846
166	0xbb06d7b4	-0.0020575346
167	0xb9d51942	-0.00040645344
168	0xbac7b44a	-0.0015236225
169	0x37f5740f	2.926032e-05
170	0x3ac7572e	0.0015208477
171	0x3ae0e80f	0.0017159003
172	0xb910876b	-0.00013783357
173	0x3ac803bc	0.0015259902
174	0xb9332abf	-0.00017086694
175	0xbaa64d09	-0.0012687753
176	0xbabb2334	-0.0014277459
177	0x3a666c2f	0.00087899243
178	0xba361cc4	-0.00069470354
179	0xba3c412a	-0.0007181341
180	0xbb660a43	-0.0035101331
181	0x38de5782	0.000106020845
182	0xba185a80	-0.00058118254
183	0x3b6664fe	0.003515541
184	0x3987f5b1	0.0002593226
185	0x3a254dee	0.0006305863
186	0xbabc70e0	-0.0014376901
187	0x39004134	0.00012231321
188	0x3a30a2ce	0.0006738127
189	0xbb15d7bc	-0.0022864183
190	0x392ab514	0.0001627992
191	0xb7a4c141	-1.9640314e-05
192	0x39d589b1	0.00040729114
193	0xbb556303	-0.0032560236
194	0xba8bbc5f	-0.0010660997
195	0xbb4696a1	-0.0030302184
196	0x3b1e5b83	0.0024163432
197	0xb9af8c5f	-0.00033483186
198	0xbab716c7	-0.001396858
199	0x3ab46422	0.0013762752
200	0xbb2fc321	-0.0026819187
201	0xbb4b7387	-0.0031044201
202	0xbacc3566	-0.0015579879
203	0x39c2ec72	0.0003717873
204	0x3b01b709	0.0019792935
205	0xbb251793	-0.0025191053
206	0xbbacc6f2	-0.0052727396
207	0x3a61efc7	0.00086187985
208	0xba4c8041	-0.0007801094
209	0xbab7bbe9	-0.0014017794
210	0xba64d886	-0.0008729774
211	0x3b103d99	0.0022009371
212	0x3b225692	0.0024770838
213	0x3aa7445f	0.0012761465
214	0xb76778fa	-1.379684e-05
215	0xb9365ec5	-0.00017392177
216	0xba22a4d2	-0.000620437
217	0x3b628e11	0.0034569541
218	0x3c19d4d4	0.009389121
219	0xba261423	-0.0006335398
220	0xbb01b707	-0.001979293
221	0xba854d30	-0.0010170098
222	0xbb326a38	-0.0027223956
223	0x3a98efbb	0.0011668125
224	0x3b13fd6c	0.002258147
225	0x38f6dec3	0.00011771687
226	0xbb61e8f9	-0.0034471138
227	0x3a83184e	0.001000175
228	0x3a5722a6	0.0008206762
229	0xb9e2eb14	-0.00043281226
230	0x3ac938ed	0.0015352048
231	0xbb00cabe	-0.0019652094
232	0xba50a422	-0.0007959028
233	0x3b0163bf	0.0019743291
234	0xba653657	-0.0008743754
235	0xba1fece8	-0.00061006704
236	0xb9e54599	-0.00043730138
237	0xb957120c	-0.00020510721
238	0xb9916f40	-0.00027739443
239	0x3ae92b8f	0.0017789471
240	0xbada210e	-0.0016641931
241	0x3a5c2c63	0.0008398948
242	0x394d91fa	0.00019604704
243	0xba88a405	-0.0010424858
244	0xb8a794a8	-7.99087e-05
245	0xba814e94	-0.0009865337
246	0x39bae913	0.00035650338
247	0xba5c975c	-0.0008414888
248	0xbaad52ad	-0.0013223492
249	0xba69ed3c	-0.00089235953
250	0x3a435f7f	0.00074528897
251	0xba19e181	-0.00058700895
252	0x38bec6bd	9.096924e-05
253	0x3ab198dc	0.0013549584
254	0x3b06e3a5	0.0020582464
255	0xbae27163	-0.0017276224
